Assets/models/3DBall-135351.onnx (onnx, 74023 bytes, 9 tensors)

network_body.observation_encoder.processors.0.normalizer.running_mean f4 [8]
0	0xbac21cd3	-0.0014809616
1	0x3ab7f85e	0.0014035811
2	0xbba1527b	-0.0049231625
3	0x4045a9e4	3.0884943
4	0xbdd360bd	-0.10321186
5	0x3c92d2b7	0.017922742
6	0xbf0ab360	-0.54179955
7	0xba1f0b22	-0.00060670276

network_body._body_endoder.seq_layers.0.weight f4 [128, 8]
0	0xbe3baae3	-0.18326907
1	0xbd997fd7	-0.07495087
2	0x3f3ce911	0.7379313
3	0x3caf3921	0.021389546
4	0x3f4a058e	0.78914726
5	0xbe6a6bba	-0.22892657
6	0x3e746da4	0.2386995
7	0x3b96e300	0.004604697
8	0xbe72c6f0	-0.23708701
9	0xbe36abc3	-0.1783896
10	0x3e2c0a52	0.16800812
11	0xbef3d27b	-0.4762152
12	0x3e7a1a0c	0.24423999
13	0x3eef7ae3	0.46773443
14	0xbd7e5ca5	-0.06210007
15	0xbe4bad76	-0.19890389
16	0x3da45e29	0.08025772
17	0xbe9180fe	-0.28418726
18	0xbe220b9c	-0.15824741
19	0xbe4f5291	-0.2024634
20	0xbe9e3107	-0.3089678
21	0x3e91f447	0.2850668
22	0xbea08b25	-0.3135616
23	0xbf11dc85	-0.5697711
24	0x3e1ea0c9	0.15491022
25	0xbeffde3e	-0.49974245
26	0xbe11e18e	-0.14246199
27	0x3cce596c	0.025189124
28	0x3e2458b6	0.16049466
29	0x3e110912	0.14163616
30	0x3e25fffe	0.16210935
31	0x3f2c91f9	0.67410237
32	0xbec081b8	-0.37598968
33	0x3d484b8b	0.04890017
34	0x3ed58ab2	0.4170738
35	0x3ec41668	0.38298345
36	0x3e880883	0.26568994
37	0xbda4c5cc	-0.08045539
38	0x3d325e8b	0.043547194
39	0xbe738304	-0.23780447
40	0xbc4b0f8f	-0.012393846
41	0x3f023e9d	0.5087679
42	0xbd6210d2	-0.055191822
43	0x3edbd4b1	0.42935708
44	0xbd57f6be	-0.052725546
45	0xbe00f35a	-0.12592831
46	0x3e1675ad	0.14693327
47	0xbbc7de84	-0.006099524
48	0x3e89a56d	0.26884022
49	0xbe86889f	-0.2627611
50	0xbe4a8c50	-0.19780087
51	0x3ea3df14	0.32006133
52	0xbf0ba085	-0.5454181
53	0xbea331eb	-0.31874022
54	0xbded8d1a	-0.115991786
55	0xbe0f56b0	-0.13997912
56	0xbf0aa97d	-0.5416487
57	0xbe7664b6	-0.24061856
58	0x3e98cb1a	0.29842454
59	0xbd2bbfac	-0.04193084
60	0x3c57e6e6	0.013177609
61	0x3e875c53	0.26437625
62	0x3d488613	0.04895599
63	0xbe3d7946	-0.18503293
64	0x3e5d95e6	0.21639213
65	0xbe1d9daf	-0.15392183
66	0xbedb584b	-0.428408
67	0xbeb33b9a	-0.3500641
68	0xbd825e77	-0.06365674
69	0xbd3caff9	-0.046066258
70	0x3f2f3715	0.68443424
71	0xbe1f15ab	-0.1553561
72	0x3db4ddd1	0.088313706
73	0xbe86c12c	-0.26319253
74	0xbeb60f12	-0.35558373
75	0xbe8f5408	-0.27993798
76	0x3d710ce7	0.058850195
77	0xbeac901f	-0.33703706
78	0x3d4e3b4d	0.050349522
79	0x3d5f21d7	0.05447563
80	0xbec31e4e	-0.38109058
81	0xbe2fb606	-0.1715928
82	0x3e418b86	0.1890088
83	0xbe6c22a2	-0.23060086
84	0xbf12699c	-0.571924
85	0xbe72d519	-0.23714103
86	0xbf22d617	-0.63607925
87	0xbf35b55d	-0.70979863
88	0xbde92ab2	-0.113850966
89	0x3ec49318	0.38393474
90	0xbe087d3d	-0.13329025
91	0xbee645c5	-0.44975105
92	0x3e2ba3e5	0.1676174
93	0xbf565adc	-0.8373239
94	0xbe4c2509	-0.19936003
95	0xbd41971a	-0.047263242
96	0xbec17955	-0.37787881
97	0x3e8a02d5	0.26955286
98	0x3ed06c68	0.40707707
99	0x3eb79d78	0.35862327
100	0xbe9580ad	-0.29199734
101	0x3e3e8127	0.18603955
102	0x3d554bd1	0.052074257
103	0x3e9691d5	0.29408136
104	0x3e841b3b	0.25802025
105	0xbe07fd0b	-0.13280122
106	0x3dc4dc8b	0.09612378
107	0xbe7345e2	-0.23757127
108	0x3e97d0f1	0.29651597
109	0xbea0c326	-0.31398886
110	0x3d823ae3	0.06358888
111	0x3f394c84	0.7238238
112	0x3ea62de4	0.32456887
113	0x3ea3ffed	0.32031193
114	0x3e78c9f6	0.24295792
115	0x3dc068ec	0.09395012
116	0xbe00beaa	-0.12572733
117	0xbd1e7669	-0.038687143
118	0xbdfb811e	-0.122804865
119	0x3f698407	0.9121708
120	0xba5663ec	-0.00081783417
121	0x3e089b11	0.13340403
122	0x3edf8e2a	0.4366315
123	0x3e010760	0.1260047
124	0xbeda9969	-0.42695168
125	0x3d867c18	0.06566638
126	0x3f6a1035	0.9143098
127	0x3e086cad	0.13322707
128	0x3eeec374	0.46633494
129	0x3e67a396	0.22620997
130	0x3f068e8e	0.5256127
131	0x3e5f8abd	0.21830268
132	0x3d1b8831	0.03797168
133	0x3ea9ad92	0.33140236
134	0x3f0f328c	0.55936503
135	0x3eb3db10	0.3512807
136	0x3d51c389	0.051211867
137	0x3ecd7f26	0.4013607
138	0x3e6f6857	0.23379646
139	0xbdb227ce	-0.086989984
140	0xbe84ba7c	-0.25923526
141	0x3eedde5f	0.46458718
142	0xbd30e960	-0.043191314
143	0x3e0b6a25	0.1361471
144	0xbc23c8ae	-0.009996576
145	0xbe57f616	-0.21089968
146	0xbebc8f71	-0.36828187
147	0xbd865a2f	-0.0656017
148	0x3e24fbc8	0.16111672
149	0x3e65e92e	0.22452232
150	0x3ec4971b	0.38396534
151	0xbe9ae82f	-0.30255267
152	0xbe60678f	-0.21914504
153	0x3e794e7c	0.24346346
154	0xbdb4e897	-0.088334255
155	0xbe71c304	-0.23609549
156	0x3d32c5d8	0.04364571
157	0x3e56de59	0.20983256
158	0x3e654279	0.22388639
159	0xbe8c79ac	-0.27436578
160	0xbe96ae5a	-0.29429895
161	0xbe9b863f	-0.3037586
162	0xbee4698e	-0.44611782
163	0xbe3c29b5	-0.18375285
164	0x3efbc56d	0.4917406
165	0xbdd7d3e2	-0.1053846
166	0xbebd4b25	-0.36971393
167	0x3e87d1dc	0.26527297
168	0x3ecae649	0.3962882
169	0x3cbf0676	0.02331851
170	0xbebb33e5	-0.3656303
171	0x3e53b3c8	0.2067405
172	0x3e98aeda	0.298209
173	0x3dd9c697	0.10633581
174	0x3dc2bb17	0.09508341
175	0xbeb04db2	-0.34434277
176	0x3e2f5506	0.17122278
177	0xbec1d135	-0.37854925
178	0x3db74923	0.089494966
179	0x3e8fe130	0.28101492
180	0xbddcfbaa	-0.107901886
181	0xbd4a5adf	-0.049403068
182	0x3df4f82f	0.119614
183	0xbd73654c	-0.059422776
184	0xbe7e7464	-0.24849087
185	0x3e177fe0	0.14794874
186	0x3d8af162	0.06784321
187	0xbe30a574	-0.17250615
188	0xbe54dd86	-0.2078763
189	0xbe2af125	-0.16693552
190	0xbd850a4d	-0.06496105
191	0xbe236b45	-0.15958889
192	0x3e501bbb	0.20323078
193	0x3f0b9f4e	0.54539955
194	0xbcdae437	-0.02672015
195	0xbea1b874	-0.3158604
196	0x3e46f782	0.19430354
197	0xbe232fda	-0.15936223
198	0x3efd6d3d	0.49497405
199	0x3e2b67d1	0.16738822
200	0x3ef1e445	0.47244468
201	0xbf1694f6	-0.58821046
202	0x3ea93be7	0.33053514
203	0x3ebabd24	0.36472428
204	0xbec81283	-0.39076623
205	0xbf674e6f	-0.90354055
206	0xbdabfbd3	-0.08397641
207	0xbd6a0bd5	-0.05714019
208	0xbe683e31	-0.22679974
209	0xbe9068ec	-0.2820505
210	0x3ea1485b	0.31500515
211	0xbeffff29	-0.4999936
212	0xbf02584c	-0.5091598
213	0xbf39d491	-0.72589976
214	0x3e215d7f	0.15758322
215	0xbed86d53	-0.42270908
216	0xbc5d7a29	-0.013517895
217	0x3cae0353	0.02124182
218	0xbea88c95	-0.32919756
219	0xbeebbd72	-0.46042973
220	0x3e731c3c	0.2374124
221	0xbeee5e1f	-0.46556184
222	0x3e2afb37	0.16697393
223	0xbd509de3	-0.050931823
224	0x3e6880cb	0.2270538
225	0xbcd90ce3	-0.026495403
226	0x3efab79a	0.48968202
227	0x3f271139	0.65260655
228	0xbdf01b38	-0.117239416
229	0xbeddda20	-0.4333048
230	0xbb291c39	-0.0025804176
231	0x3dd66791	0.104689725
232	0xbef2dfc1	-0.47436336
233	0x3db34724	0.08753803
234	0x3e3a9fb7	0.18224989
235	0xbd929171	-0.07156647
236	0x3bc358d6	0.005961518
237	0x3f459cda	0.7719246
238	0xbf099f1a	-0.53758395
239	0x3ee32e6a	0.4437135
240	0xbe5ca31b	-0.21546595
241	0x3da8a0f9	0.08233828
242	0x3f1e1551	0.61751276
243	0xba82e932	-0.000998771
244	0x3ea0f800	0.3143921
245	0xbe39d96d	-0.18149348
246	0x3eb7bd30	0.35886526
247	0x3f274ba4	0.65349793
248	0x3eaa53cc	0.33267057
249	0x3ea24a16	0.31697148
250	0xbe306478	-0.17225826
251	0xbee585e9	-0.44828728
252	0x3bc9cc82	0.0061584124
253	0xbe9675ec	-0.29386842
254	0xbecfdacb	-0.40596613
255	0x3edea723	0.4348689

network_body._body_endoder.seq_layers.0.bias f4 [128]
0	0xbca5c0f7	-0.020233614
1	0xbd4dfbd5	-0.050288994
2	0xbd519de3	-0.051175963
3	0xbd9dfd72	-0.077143565
4	0x3bbf7863	0.0058432086
5	0x3c16c67d	0.009202597
6	0x3c4c8e53	0.012485105
7	0x3cb0ac87	0.021566642
8	0x3c82dc40	0.015974164
9	0xbd2e2d54	-0.042523697
10	0xbbd5a66b	-0.0065200827
11	0xbda23b64	-0.07921484
12	0xbbba724d	-0.0056898952
13	0xbce288e7	-0.02765317
14	0xbcc7202c	-0.024307333
15	0x3cff94bf	0.031198857
16	0x3ccd5ffa	0.02507018
17	0xbca30bb4	-0.019903041
18	0xbbe9938f	-0.007128186
19	0xbc1217d2	-0.008916812
20	0xbd6b6343	-0.05746771
21	0xbabe76b5	-0.0014531227
22	0xbd11dd43	-0.035611402
23	0xbd7eef02	-0.062239654
24	0xbd560136	-0.05224725
25	0x3c2d51a4	0.010578547
26	0x3bd3528c	0.0064490493
27	0xbcfd63b9	-0.03093134
28	0xbaa99a26	-0.0012939617
29	0xbd2d3ebb	-0.042296153
30	0xbc8e45e4	-0.01736731
31	0xbdb745ee	-0.08948885
32	0x3b8eeea7	0.0043619457
33	0xbd29eda1	-0.041486386
34	0xbdb33f42	-0.087523
35	0xbd858813	-0.06520095
36	0xba7a5b07	-0.00095503073
37	0x3c188dd4	0.009311158
38	0xbd9b353c	-0.07578513
39	0x3cfefc56	0.031126183
40	0xbcaddada	-0.02122252
41	0x3c08bd30	0.008345887
42	0x3c8cbf42	0.017181043
43	0xbd57cf93	-0.052688193
44	0xbd8e8bbe	-0.069602475
45	0xbc060ac9	-0.008181282
46	0xbc0a04af	-0.008423968
47	0x3d631c11	0.055446688
48	0xbd51074a	-0.051032342
49	0x3bec122b	0.007204314
50	0xbd471f00	-0.04861355
51	0xbd0b6407	-0.03403094
52	0x3cedcaaa	0.029027302
53	0x3bf38294	0.0074313376
54	0xbc5e0491	-0.013550893
55	0x3ce88e32	0.028388117
56	0x3c546618	0.012963794
57	0xbb03783b	-0.0020060677
58	0xbd28d0fc	-0.041214928
59	0xbd9d4bbe	-0.07680462
60	0xbd3aba6a	-0.045587935
61	0x3c0372af	0.008022948
62	0xbd56616f	-0.052339014
63	0x3c6abd5b	0.014327372
64	0x3b9dd18c	0.0048162397
65	0xbd654b66	-0.05598011
66	0x3c591a12	0.013250845
67	0xb9995507	-0.00029245784
68	0xbc76c100	-0.015060663
69	0x3c90ef82	0.017692331
70	0x3c821862	0.015880767
71	0xbc1fbf5d	-0.009750214
72	0x3bab5597	0.005228709
73	0xbcaab6fd	-0.020839209
74	0xbd2de184	-0.042451397
75	0x3bf7083b	0.007538823
76	0x3a7b9fcf	0.00095987035
77	0xbd306b20	-0.043070912
78	0xbc6e9cc3	-0.014563742
79	0xbcc4a73c	-0.024005525
80	0x3845cadf	4.71574e-05
81	0x3d03ece8	0.032208353
82	0xbcf47da7	-0.029845072
83	0x3c188fe8	0.009311654
84	0x3c68bb3c	0.014204796
85	0x3cd8604d	0.026413107
86	0x3cc31376	0.02381299
87	0xbc35176c	-0.0110529475
88	0x3d06f3f5	0.0329475
89	0xbaee9945	-0.0018203637
90	0x3d119778	0.035544842
91	0xbd284da1	-0.041089658
92	0x3c3b655d	0.011437741
93	0xbd1eb81e	-0.038749807
94	0x3cf62dc6	0.030051123
95	0x3bbe7ab0	0.0058129653
96	0xbc3dca5f	-0.011583894
97	0xbd644208	-0.055727035
98	0x3c202453	0.009774285
99	0x3c9fe793	0.019519603
100	0x3c3843a4	0.0112465955
101	0xbd2eb1be	-0.042649977
102	0x3c4b7d93	0.012420076
103	0xbc3000b2	-0.010742353
104	0xbb1f26bc	-0.0024284562
105	0xbb9b1792	-0.0047330344
106	0x3d45a8e1	0.04825676
107	0x3c81fc32	0.015867326
108	0xba75fb39	-0.00093834434
109	0xbd651051	-0.055923764
110	0xbcbb561e	-0.022868212
111	0xbd2bab5a	-0.04191146
112	0xbd4f0ef3	-0.050551366
113	0xbd574889	-0.05255941
114	0xbd08b42e	-0.033374958
115	0x3d0d44c2	0.0344894
116	0xbae4e8f2	-0.0017464443
117	0x3cd7c5a4	0.02633936
118	0x3c16bb19	0.009199881
119	0xbd0cd369	-0.034381304
120	0xbd27268c	-0.040808246
121	0xbc173b35	-0.009230425
122	0x3b35aafd	0.0027720325
123	0xbda9dd61	-0.08294178
124	0x3c2655f8	0.0101523325
125	0x3c0e6e7a	0.008693332
126	0xbc25acd9	-0.010112011
127	0x39164785	0.00014331758

network_body._body_endoder.seq_layers.2.weight f4 [128, 128]
0	0x3c805ea7	0.015670134
1	0xbd85923d	-0.06522033
2	0xbdc20379	-0.094733186
3	0x3c928880	0.017887354
4	0x3d6bc49b	0.057560544
5	0x3dd7e2cd	0.10541306
6	0xbdbc2149	-0.09186036
7	0xbd89bf51	-0.06725944
8	0xbda581d9	-0.08081407
9	0xbd4e7e22	-0.05041326
10	0xbe2eb417	-0.17060886
11	0xbdcacec0	-0.09902716
12	0xbdb9502c	-0.09048495
13	0x3dedf8ca	0.116197184
14	0xbd11d180	-0.035600185
15	0xbe0c5f84	-0.13708311
16	0x3becf234	0.0072310213
17	0xbda6969b	-0.081341945
18	0x3ad2ad52	0.0016073382
19	0xbe06ee65	-0.13176878
20	0x3c696ddd	0.014247385
21	0xbd7118e1	-0.058861617
22	0x3d03869c	0.032110795
23	0xbd227a78	-0.039667577
24	0xbdcc3444	-0.099709064
25	0x3e41a4cd	0.18910523
26	0xbe2346fd	-0.15945049
27	0x3e03ec2d	0.12883063
28	0xbd975378	-0.07388967
29	0xbd07ef58	-0.03318724
30	0xbdb17fc7	-0.0866695
31	0xbce1dc10	-0.027570754
32	0x3e3f0ef1	0.18658043
33	0xbe15bae3	-0.14622073
34	0x3e2c089c	0.16800159
35	0xbd58e7d8	-0.05295548
36	0xbe425d49	-0.18980898
37	0xbe54db23	-0.20786719
38	0x3c657baa	0.014006535
39	0x3daf0b79	0.0854711
40	0xbc95e77c	-0.018298857
41	0xbd3f25e9	-0.046667013
42	0x3e02d333	0.12775879
43	0xbdbb4d05	-0.0914555
44	0xbe1e6207	-0.15467082
45	0xbe2528ad	-0.16128798
46	0x3dd5087c	0.10402009
47	0xbb9db099	-0.004812312
48	0x3d9a848f	0.07544815
49	0x3df39f00	0.11895561
50	0xbda9806a	-0.08276446
51	0xbcffc51c	-0.031221919
52	0x3aac2502	0.0013133588
53	0x3c84abce	0.016195204
54	0xbe215ce8	-0.15758097
55	0x3db6c89d	0.08924983
56	0xbd38559d	-0.045003522
57	0x3b827407	0.0039811167
58	0xbbf2ac69	-0.007405807
59	0xbe16de7f	-0.14733313
60	0xbe0eb4af	-0.13936113
61	0x3be9f13e	0.007139354
62	0xbd540585	-0.051763076
63	0x3c13ec79	0.009028547
64	0xbd8b9185	-0.06814865
65	0xbcbcf7f1	-0.023067446
66	0x3d14c409	0.036319766
67	0xbe8beaac	-0.27327478
68	0xbd91fc5a	-0.0712821
69	0xbd500d01	-0.05079365
70	0xbe20951e	-0.15681884
71	0x3d6b00ec	0.057373926
72	0xbe044273	-0.12915973
73	0xbe20ec7c	-0.15715212
74	0xbdebdb98	-0.115164936
75	0x3d4c86f9	0.049933407
76	0x3d2dda0a	0.042444266
77	0xbe4c21d5	-0.19934781
78	0xbe30eeb8	-0.17278564
79	0xbd9652aa	-0.07339986
80	0xbce3e569	-0.027819352
81	0x3dfc286e	0.12312399
82	0x3dae4076	0.08508389
83	0x3d2a20a7	0.041535046
84	0xbc894962	-0.016758624
85	0x3b6ede0e	0.0036448273
86	0x3d05e602	0.032690056
87	0xbb193ff8	-0.0023384076
88	0x3d9dce84	0.07705405
89	0xbdf31e17	-0.118709736
90	0xbccb5d6c	-0.02482482
91	0xbcd32f63	-0.025779432
92	0xbde4df0b	-0.111753546
93	0x3df0c6a1	0.117566355
94	0xbde3f4a2	-0.111306444
95	0x3c02c887	0.00798238
96	0xbe05bf7c	-0.13061327
97	0x3d8061b9	0.06268639
98	0x3e08abcc	0.13346785
99	0x3e09e745	0.13467129
100	0x3bd92b9a	0.006627512
101	0xbde66c78	-0.112511575
102	0x3a0a4973	0.0005275227
103	0x3ca27bc6	0.01983441
104	0xbbc0c69c	-0.005883051
105	0x3ca32f19	0.019919919
106	0xbe05e0d0	-0.1307404
107	0x3d52879b	0.051398855
108	0x3df5e774	0.12007037
109	0xbc7efc52	-0.015563088
110	0x3cdac422	0.026704852
111	0xbcfa5e4e	-0.030562546
112	0xbe14f004	-0.14544684
113	0xbd9a0732	-0.07520904
114	0xbdd647a5	-0.10462884
115	0xbc965eab	-0.018355688
116	0x3d7b751f	0.061390992
117	0xbe202a6e	-0.15641186
118	0x3e231be8	0.15928614
119	0x3dbe061d	0.0927851
120	0x3c7f3635	0.015576889
121	0x3de6f565	0.11277274
122	0x3d29e78d	0.04148059
123	0x3d2ea7ca	0.042640485
124	0x3dbea5ca	0.093089655
125	0x3d43611c	0.047700033
126	0x3d99cbb9	0.0750956
127	0x3dd585e7	0.104259305
128	0xbdc095bd	-0.0940356
129	0xbdd1bef0	-0.102414966
130	0x3e3e1d05	0.18565758
131	0xbd63e7b4	-0.05564089
132	0xbe05bfb9	-0.13061418
133	0xbdd71da1	-0.10503698
134	0x3c1c8e0d	0.009555352
135	0xbe4133df	-0.18867444
136	0xbd2bac48	-0.041912347
137	0xbda59577	-0.08085149
138	0x3d901cb0	0.07036722
139	0xbde3937e	-0.11112116
140	0x3d6b541b	0.057453256
141	0x3daabe5c	0.083370894
142	0x3d479678	0.048727483
143	0xbd171300	-0.036883354
144	0xbd4eb0e6	-0.050461672
145	0xbdbfaf52	-0.093596116
146	0xbda26e4a	-0.07931192
147	0xbdaf6229	-0.085636444
148	0x3d5721ba	0.0525224
149	0x3e18c04c	0.14917105
150	0x3b494c7a	0.003071575
151	0x3d4de26b	0.050264757
152	0xbc6ecf76	-0.01457583
153	0x3cc69acf	0.02424374
154	0xbd60dd2c	-0.054898426
155	0x3dc67b68	0.096915066
156	0x3e3b70f9	0.18304814
157	0xbcb88677	-0.022525055
158	0xbcdb6c99	-0.026785182
159	0x3d6c7999	0.057733152
160	0xbe11571f	-0.1419339
161	0x3da59fd3	0.08087125
162	0xbd97931d	-0.074011065
163	0xbdaabf69	-0.0833729
164	0x3cb564d9	0.022142814
165	0x3c2b46ea	0.010453919
166	0xbcd42ed7	-0.025901241
167	0x3ddf916a	0.109164074
168	0xbccecf34	-0.025245287
169	0xbe17201a	-0.1475834
170	0x3dc193ce	0.0945202
171	0xbdc1fd74	-0.094721705
172	0xbdf2b1a0	-0.118502855
173	0x3dabb1a7	0.08383494
174	0x3c2e30f3	0.010631788
175	0x3de195d9	0.11014909
176	0xbd61ca9d	-0.055124868
177	0x3d4e2654	0.05032952
178	0xbe09ed68	-0.1346947
179	0x3d3a3274	0.045458272
180	0xbce6b6f5	-0.028163413
181	0x3c7594a2	0.01498905
182	0x3de79429	0.11307556
183	0x3d4218ca	0.047386922
184	0xbd6e0b1a	-0.058116056
185	0xbdff1cd8	-0.124566734
186	0xbc86875f	-0.016421972
187	0x3c0d0e92	0.008609431
188	0x3d838436	0.064217016
189	0xbdfa1f26	-0.12212972
190	0xbd1f8904	-0.038949028
191	0xbdc0ab27	-0.09407645
192	0x3da5d386	0.080969855
193	0xbd641998	-0.05568847
194	0xbd9a892d	-0.075456955
195	0xbbdd55c8	-0.0067546107
196	0xbe4f8b4a	-0.20267978
197	0xbd508671	-0.050909463
198	0x3dd39523	0.1033118
199	0x3de20392	0.11035837
200	0xbc7948c9	-0.015215107
201	0xbe5a878a	-0.21340767
202	0xbe092a74	-0.13395101
203	0x3d5e7cfe	0.05431842
204	0x3e23d3c5	0.15998752
205	0xbbe083a5	-0.0068516308
206	0xbdd71b28	-0.105032265
207	0x3dbb314d	0.09140263
208	0x3d889650	0.06669295
209	0xbd0c47d7	-0.0342482
210	0x3d893eb3	0.06701412
211	0xbb49ec48	-0.0030811
212	0xbd82120f	-0.06351101
213	0xbd9c86c2	-0.076428905
214	0xbc9daa1a	-0.01924615
215	0x3d7f7332	0.06236572
216	0xbcdaf784	-0.026729353
217	0x3dc36e4f	0.09542524
218	0xbe25e58e	-0.1620085
219	0xbd689c19	-0.05678949
220	0x3d78d717	0.060752
221	0xbe27ecad	-0.16398878
222	0x3c29f247	0.010372705
223	0xbd9e4574	-0.07728091
224	0xbe1437e1	-0.14474441
225	0x3cd6016c	0.026123725
226	0x3d8a157c	0.06742379
227	0xbd904a23	-0.070453905
228	0xbe2a83c6	-0.1665183
229	0x3e1f6fdc	0.15570015
230	0x3d971cab	0.07378515
231	0xbc4c03d4	-0.012452085
232	0xbe26a5cf	-0.16274188
233	0xbd39636d	-0.045260835
234	0x3d58ef6d	0.05296271
235	0x3d7b1e5a	0.061308242
236	0x3e2e0357	0.16993462
237	0xbd21c9b3	-0.039498996
238	0x3e4860a1	0.19568111
239	0x3e3487bd	0.17629905
240	0xbd89fbc9	-0.06737477
241	0x3d60e65f	0.0549072
242	0x3bb4a236	0.005512501
243	0xbe330302	-0.17481616
244	0xbd67bd71	-0.05657715
245	0xbd9ef65b	-0.07761832
246	0x3e028d8d	0.1274931
247	0x3e3ee649	0.18642534
248	0xbcf78e90	-0.030219346
249	0xbcf9422b	-0.03042706
250	0xbdc5abda	-0.09651919
251	0xbd5276ef	-0.051382955
252	0xbbcd5fd9	-0.0062675294
253	0xbe543c0b	-0.2072603
254	0x3cd6c5a2	0.026217286
255	0xbd3fd8aa	-0.046837486

network_body._body_endoder.seq_layers.2.bias f4 [128]
0	0x3cb31aac	0.021863304
1	0x39ceba76	0.00039430306
2	0xbc47cd7b	-0.012194986
3	0xbbe2b314	-0.0069183204
4	0x3c2be5e2	0.01049182
5	0x3cb8dcdf	0.022566257
6	0xbd22da1c	-0.039758787
7	0x3d39cec7	0.045363214
8	0x3c102a8e	0.008799208
9	0x3c8e4827	0.01736839
10	0xbc3452df	-0.011006086
11	0x3c0d3559	0.008618676
12	0xbc8d5e85	-0.017256984
13	0xbb399472	-0.002831724
14	0xbc1a9b72	-0.009436475
15	0x3c4a0d32	0.012332248
16	0xbc2d0458	-0.010560118
17	0x3d576ddf	0.052595016
18	0xbc20d2e2	-0.009815903
19	0x3d311683	0.04323436
20	0x3c43bd32	0.011946963
21	0xbc3d1e29	-0.011542835
22	0xbc24c756	-0.010057291
23	0x3d8c1e39	0.06841702
24	0x3d48ebbe	0.049052946
25	0xbb24b719	-0.0025133549
26	0xbcb265fa	-0.021777142
27	0x3d02851e	0.03186523
28	0x3c779389	0.015110859
29	0x3cc416f4	0.023936726
30	0xbc0c4a65	-0.008562659
31	0xbb00dc17	-0.0019662434
32	0xbcdeca42	-0.027196053
33	0xbc295612	-0.010335462
34	0x3c5772fe	0.013149975
35	0x3bae5d69	0.005321194
36	0x3a337c62	0.00068468426
37	0x3c61b47f	0.013775944
38	0x3d14db7e	0.036342137
39	0xba906211	-0.0011015554
40	0xbcc6eddd	-0.024283344
41	0xbbb77dab	-0.0055996976
42	0x3bfd7b7f	0.007735669
43	0x3d91ddf4	0.07122412
44	0xbcfd238f	-0.030900745
45	0xb907f933	-0.00012967437
46	0x3bca0781	0.0061654453
47	0xbcd33ab5	-0.02578483
48	0x3c9dcdc4	0.019263156
49	0xbbd81b52	-0.0065950537
50	0x3ce371e3	0.027764266
51	0xbc5d17a1	-0.013494403
52	0xbc9fef99	-0.019523429
53	0xbbe6b249	-0.007040296
54	0xbc6357e1	-0.013875932
55	0x3d3dcc96	0.046337686
56	0x3b33ca30	0.0027433746
57	0x3cebcaac	0.028783165
58	0x3c863195	0.016381064
59	0x3d0da035	0.034576613
60	0xbcd75c00	-0.026288986
61	0x3c3d5643	0.011556211
62	0xbbacd603	-0.0052745356
63	0xbca9cfe6	-0.020729017
64	0x3bec58f9	0.007212755
65	0xbbed4fc0	-0.007242173
66	0x3cedcb07	0.029027475
67	0x3c2bc321	0.010483534
68	0xbb7b89f6	-0.0038381792
69	0xbc5459d5	-0.012960871
70	0xbca5bb90	-0.020231038
71	0x3d1ac381	0.037784103
72	0x3ccd7940	0.02508223
73	0x3cd44535	0.025911907
74	0x3d4ebea8	0.050474793
75	0xbc5d8059	-0.01351937
76	0xbbea6854	-0.00715355
77	0x3d12c64e	0.03583365
78	0xbc6eef58	-0.014583431
79	0x3ba4a70c	0.0050247964
80	0x3c03e62b	0.008050482
81	0xba0d713f	-0.0005395598
82	0x3c5c7fc6	0.013458198
83	0x3ce12f26	0.027488302
84	0x3c4bd4f0	0.012440905
85	0x3b07fb5a	0.0020749182
86	0x3c0eb2d9	0.008709633
87	0xbc34d2aa	-0.011036554
88	0xbc66cb03	-0.014086488
89	0xbc1643c0	-0.009171426
90	0xbc0a111e	-0.008426933
91	0xba750ebf	-0.00093482056
92	0xbc48fa43	-0.012266698
93	0xbcee7718	-0.029109523
94	0x3d9be31d	0.07611678
95	0x3d60160a	0.054708518
96	0x3ba8b2d2	0.00514827
97	0x3bba18ca	0.0056792246
98	0xbc0466fe	-0.008081196
99	0x3cd4f5b7	0.025996072
100	0x3d06a493	0.032871794
101	0xbc6c4f11	-0.014423148
102	0x3c108b8b	0.008822332
103	0x3c6ff6a2	0.014646204
104	0xbccc286d	-0.02492162
105	0xbc2e0e17	-0.0106234765
106	0x3cd31d82	0.025770906
107	0x3d3e1211	0.04640395
108	0xbc849434	-0.01618395
109	0xbcc9c841	-0.024631621
110	0x3c40bd76	0.011763921
111	0x3d5819cd	0.05275898
112	0x3d174666	0.03693237
113	0xbb74a985	-0.0037332487
114	0xbc47fcf9	-0.0122063095
115	0xbc8e5b29	-0.017377453
116	0x3c5dc6a7	0.013536132
117	0x3bb6024c	0.005554473
118	0x3c82a084	0.01594568
119	0x3a9ed37c	0.0012117471
120	0x3c187ed2	0.00930758
121	0xbb4886c3	-0.0030597902
122	0x3b9221d9	0.0044596014
123	0x3d2ea284	0.042635456
124	0x3d8fd5c4	0.070231944
125	0xbbbec290	-0.0058215335
126	0x3c9b8699	0.01898508
127	0x3d4de9ff	0.050271984

action_model._continuous_distribution.log_sigma f4 [1, 2]
0	0xbdb829c1	-0.08992339
1	0xbdda7925	-0.10667638

action_model._continuous_distribution.mu.weight f4 [2, 128]
0	0xbc2907c6	-0.010316795
1	0xbc54736f	-0.012966975
2	0x3a02bd76	0.00049873383
3	0x3c37a257	0.011208138
4	0xbc8371fa	-0.01604556
5	0x3d504e1e	0.05085575
6	0x3afeb0d5	0.0019431362
7	0xbce1d0ad	-0.027565325
8	0x3c61d7a1	0.01378432
9	0x3d0b526f	0.03401416
10	0xbc4eefd0	-0.012630418
11	0xbbe1b837	-0.006888415
12	0xbb6d399e	-0.0036197673
13	0x3d36940f	0.044574793
14	0xbc341d19	-0.010993266
15	0x3d8159e7	0.06315976
16	0x3c6204eb	0.013795118
17	0x3d557839	0.052116606
18	0xbc1f24a8	-0.009713329
19	0xbdab6021	-0.083679445
20	0x3d4c8751	0.049933735
21	0xbc0af170	-0.008480415
22	0x3cd875e5	0.026423404
23	0x3dd6c8e8	0.104875386
24	0xbc705312	-0.014668243
25	0x3c30e140	0.010795891
26	0x3c1f5e06	0.009727007
27	0x3d53f597	0.051747885
28	0xbce87010	-0.028373748
29	0x3dbb7b29	0.0915435
30	0x3cbf140b	0.023324987
31	0x3c979be4	0.018506952
32	0xbc24596c	-0.010031085
33	0x3c4907c2	0.012269916
34	0xbd875871	-0.06608666
35	0xbb3e4ff2	-0.002903935
36	0xbc3791a1	-0.011204154
37	0xbce321a5	-0.027726004
38	0xbcfd8977	-0.030949337
39	0x3cae190f	0.021252183
40	0x3bf3ba9d	0.0074380175
41	0x3c9b12e1	0.0189299
42	0xbd02c6c6	-0.031927846
43	0x3d8ba948	0.06819397
44	0xbb2809ce	-0.002564061
45	0xbcbfdfb3	-0.023422098
46	0x3c681586	0.014165288
47	0xbb725697	-0.003697788
48	0xbd25b497	-0.040455427
49	0xbc415e47	-0.011802263
50	0xbd9f8ebe	-0.07790898
51	0x3ce3c042	0.027801637
52	0xbbc91544	-0.0061365683
53	0x3c36a3a4	0.011147413
54	0xbb6fd18a	-0.00365934
55	0xbbba3f24	-0.0056837965
56	0x3d01c71c	0.031684026
57	0x3ccf3558	0.025293991
58	0x3d102f3a	0.03520129
59	0x3d8c8c71	0.068627246
60	0x3adc1942	0.0016792195
61	0x3ce99656	0.028514069
62	0xbb57ee4a	-0.0032948428
63	0xbc2a5e8f	-0.010398521
64	0xbb98c0e4	-0.004661666
65	0xbc9685cf	-0.018374352
66	0xbd97ce70	-0.07412422
67	0xbd90e2f0	-0.07074535
68	0xbcaa4dcb	-0.020789048
69	0x3b9c98f5	0.004778976
70	0xbc626e83	-0.013820293
71	0x3d5cbdb9	0.05389187
72	0x3d818b96	0.06325452
73	0xbd991f8e	-0.07476722
74	0x3db42a96	0.08797185
75	0x3b9a02b7	0.0047000307
76	0xbc9660d1	-0.018356713
77	0x3daff2cd	0.085912324
78	0xbc3588af	-0.011079951
79	0x3ccb582f	0.024822323
80	0xbcb68136	-0.02227841
81	0x3b801aee	0.0039094603
82	0xbc18a0ba	-0.009315664
83	0xbcc26a3e	-0.0237323
84	0xbd00a218	-0.031404585
85	0xbcbe8bad	-0.023259962
86	0x3be612b5	0.007021273
87	0xbb75332b	-0.0037414532
88	0xbca63141	-0.020287158
89	0xbc30bfce	-0.010787917
90	0x3c55214b	0.013008426
91	0x3ca89686	0.020579588
92	0xbc6d6890	-0.014490262
93	0x3a351d28	0.00069089467
94	0x3db04056	0.08606021
95	0x3d53d3e4	0.051715747
96	0xbd38bdd9	-0.045102928
97	0x3d252489	0.040318046
98	0x3c8df44f	0.01732841
99	0xbd2b7e8d	-0.041868735
100	0xbd96816d	-0.07348905
101	0x3b7823bc	0.0037863096
102	0x3cf68f79	0.03009771
103	0x3d0f79f2	0.035028405
104	0xbb21ece3	-0.0024707846
105	0xbc13b6c2	-0.009015741
106	0x3d382373	0.044955682
107	0xbdc81669	-0.097698994
108	0x3b0cd627	0.002148995
109	0xbb49f426	-0.003081569
110	0xbd300953	-0.042977642
111	0xbd06996f	-0.03286117
112	0x3d984ece	0.07436906
113	0xbb2bccbc	-0.002621456
114	0x3c78ce6a	0.015185932
115	0x3c68a6fe	0.01419997
116	0x3d4c5708	0.049887687
117	0x3cba5ea4	0.022750206
118	0x3bc29af7	0.0059388834
119	0x3beae5a1	0.007168487
120	0xbcb0281b	-0.021503499
121	0xbbc0c505	-0.0058828616
122	0xbb7556c2	-0.0037435745
123	0xbdd0e204	-0.10199359
124	0x3de8bd56	0.11364238
125	0x381c02e6	3.7195998e-05
126	0xbd873a0a	-0.06602867
127	0xbdd58774	-0.10426226
128	0xbdc0a69c	-0.09406778
129	0x3afadff4	0.001914023
130	0x3cb89c88	0.022535577
131	0x3c3779a0	0.011198431
132	0xbcf86bc4	-0.030324824
133	0x3ce71f6f	0.02821323
134	0xb8261b6a	-3.9603015e-05
135	0xbdd3b527	-0.103372864
136	0x3d6a456f	0.057195123
137	0x3d6a7bd1	0.057246987
138	0xba9624b9	-0.0011455036
139	0xbd130795	-0.035895903
140	0x3c9f1be2	0.019422475
141	0xba1d138a	-0.0005991986
142	0x393a60d8	0.0001777442
143	0x3d32a965	0.04361858
144	0xbc2b2564	-0.010445926
145	0xbd483b8e	-0.04888492
146	0xbbcda28f	-0.006275482
147	0xbd47b1e5	-0.048753638
148	0x3d8a73f3	0.06760397
149	0x3c40725e	0.011746017
150	0x3b84ed40	0.0040566027
151	0x3cfe68c3	0.031055814
152	0xbdbc3390	-0.09189522
153	0xbc8e79e7	-0.017392112
154	0x3bbba7a5	0.005726772
155	0xbd8acd27	-0.06777411
156	0xbd9a653c	-0.0753884
157	0x3cd77a8e	0.026303556
158	0x3cb6961a	0.02228837
159	0xb888e5dc	-6.5278e-05
160	0x3b7e9924	0.0038848603
161	0xbb492205	-0.0030690443
162	0xbd505a32	-0.050867267
163	0xbcbc5360	-0.022988975
164	0x3d4e087c	0.05030106
165	0xbc7b0edd	-0.015323368
166	0x3d9e3a6a	0.07725985
167	0x3d72d280	0.05928278
168	0xba5e84aa	-0.00084883964
169	0xbba0e198	-0.0049097054
170	0xbd0021d4	-0.03128226
171	0xbda0cbbb	-0.078513585
172	0xbb837c8a	-0.004012649
173	0xbcbf74f7	-0.023371203
174	0x3cdfcbb2	0.02731881
175	0xbbfb19b9	-0.0076629785
176	0xbcedef58	-0.029044792
177	0x3b40d53e	0.0029423977
178	0x3cb7e7ee	0.02244946
179	0x3ce91014	0.02845005
180	0x3c2f86d3	0.010713297
181	0xbbcde279	-0.006283101
182	0x3c00f9cb	0.007872055
183	0x3d9dea4e	0.07710706
184	0xbd0f594d	-0.034997273
185	0xbdae55e1	-0.08512474
186	0xb9e434ca	-0.0004352688
187	0xbd75b422	-0.05998624
188	0x3c2c7be5	0.010527586
189	0xbce958dc	-0.028484754
190	0xbc81060a	-0.01574995
191	0x3bb04762	0.0053796032
192	0x3ce9b4ca	0.02852859
193	0x3a60d41e	0.000857653
194	0xba648d76	-0.0008718589
195	0x3d22e76f	0.039771494
196	0xbd82abfa	-0.06380458
197	0x3ae2eea5	0.0017313553
198	0xba21442f	-0.0006151823
199	0xbd100bc8	-0.035167485
200	0x3c996fa3	0.01872999
201	0x3ceab1ff	0.028649328
202	0x3dad1de3	0.08452966
203	0x3c597668	0.013272859
204	0x3c1251e2	0.008930655
205	0x3d4a06de	0.049322955
206	0xb88b0253	-6.6284694e-05
207	0x3ca6006b	0.020263871
208	0xbd252c93	-0.040325712
209	0xbc270d32	-0.010196017
210	0xbd2d61ee	-0.04232972
211	0x3db0383e	0.08604477
212	0xbd1ed97c	-0.038781628
213	0x3d3bf998	0.045892328
214	0x3d38a715	0.045081217
215	0x3b187050	0.0023260303
216	0x3c8c38c0	0.017116904
217	0xbc2f4d21	-0.010699541
218	0xbb67bc41	-0.003536001
219	0x3ca05f86	0.0195768
220	0xbc9c26ab	-0.019061407
221	0xbb50c743	-0.003185705
222	0xbdb9de36	-0.090755865
223	0x3dfae612	0.12250914
224	0x3b08e6bb	0.002088948
225	0x3cf9cf0e	0.03049424
226	0xbca0892d	-0.01959666
227	0xbd5dbccb	-0.054135125
228	0x3d2bab86	0.041911624
229	0xba4923cc	-0.00076728757
230	0x3d4f1b27	0.050563004
231	0xbd462611	-0.048376147
232	0xba793551	-0.0009506541
233	0xbcffd11f	-0.031227646
234	0xbcfe192e	-0.031017866
235	0xbc913284	-0.017724283
236	0xbb6f82e9	-0.0036546534
237	0x3bb7c323	0.005607979
238	0x3caf9370	0.021432608
239	0x3dce64a1	0.10077787
240	0xbc3eb32c	-0.011639398
241	0xbc8b9422	-0.017038409
242	0xbc9fc9fc	-0.019505493
243	0x3bb10310	0.0054019764
244	0x3d2daa40	0.04239869
245	0xbcfbf16f	-0.030754773
246	0x3d2188c5	0.039437074
247	0xbcd3ac40	-0.025838971
248	0x3d050e33	0.032484245
249	0xbbe741ef	-0.0070574204
250	0x3d1053fc	0.035236344
251	0x3d7c1dcf	0.061551865
252	0x3d01d200	0.031694412
253	0x3cce35e7	0.025172187
254	0x3d0faef6	0.035078965
255	0x3c9e5f54	0.019332565

action_model._continuous_distribution.mu.bias f4 [2]
0	0x377522c4	1.46112325e-05
1	0xbb20abbf	-0.002451643

49 f4 [8]
0	0x3d89a506	0.06720929
1	0x3d896783	0.067091964
2	0x3f6b843d	0.91998655
3	0x3ea06d08	0.31333184
4	0x3f671118	0.9026046
5	0x3f4b5f1d	0.79442006
6	0x3f735c0a	0.95062315
7	0x3f454855	0.77063495
