Assets/models/BallTest-452288.onnx (onnx, 87705 bytes, 6 tensors)

network_body._body_endoder.seq_layers.0.weight f4 [128, 35]
000000 d2 ad 78 bd f5 0d 77 3d cf 16 33 3e 3c 50 94 bc
       -0.060712643 0.060316045 0.1748917 -0.018104665
000010 88 2b a3 3d 8f 6d 88 3b 7d 74 13 be b5 0e 29 be
       0.07967287 0.004163451 -0.14399906 -0.16509517
000020 d0 a4 34 be ee 1f 5b be f9 b7 38 be b1 87 71 be
       -0.17640996 -0.21398899 -0.1803893 -0.23586918
000030 71 c7 91 3d 14 89 43 3e 67 0d c6 bd 98 cf 3c 3e
       0.071181186 0.1909526 -0.09670525 0.18438566
000040 70 0b 22 3d 32 55 2f be 16 7d fc bd af 7b de 3d
       0.03956169 -0.17122343 -0.12328546 0.108634345
000050 6f ba 40 3e ed 3a 18 3e 0a 99 94 3d 60 ec 71 be
       0.18821119 0.14866228 0.072557524 -0.23625326
000060 72 8b a9 bd 60 9a 07 3e b7 d8 21 3e 55 30 91 bd
       -0.0827855 0.13242483 0.15805326 -0.07089297
000070 4c 02 7b be 3c 43 7f 3e 20 1b ea 3c ad cf b8 bd
       -0.24512595 0.24927992 0.028577387 -0.09023986
000080 71 dd 8b 3e 0c 8a b3 3d 8b 05 b2 3d e8 b7 52 bd
       0.27317384 0.08766565 0.086924635 -0.051444918
000090 82 d0 0a 3e a3 b4 dc bd 1c f2 e5 bd d3 ad 49 be
       0.13556102 -0.10776641 -0.11227819 -0.19695215
0000a0 3b 7a ea bd 2c 1f 0c 3d 87 52 07 3e 05 4e 00 3d
       -0.11449095 0.034209415 0.13215075 0.031324405
0000b0 55 b4 a0 bd ae 32 52 bc 9f 21 97 3d 3d 90 34 bd
       -0.078468956 -0.012829466 0.073794596 -0.04408287
0000c0 e4 8e 1b 3e bf 5c 27 3e e1 94 8a be 7d 97 62 bd
       0.15191227 0.16343974 -0.2706671 -0.05532025
0000d0 10 a1 0b 3d 14 9e 0e be 50 1d 51 be 1f f1 2a 3d
       0.034089148 -0.1392749 -0.20421338 0.041733857
0000e0 88 b2 6e be 8a 65 c5 be 3a f3 41 3e 01 e3 7c bc
       -0.23310292 -0.3855403 0.1894044 -0.015434981
0000f0 e4 72 90 be 54 50 47 3d 89 01 86 3e c6 f5 8f bc
       -0.28212655 0.04866059 0.26173046 -0.017573249
000100 b8 e3 4e 3e 03 75 cd be 08 d1 23 3e 17 bc 2b 3e
       0.20204055 -0.40128335 0.15997708 0.1677097
000110 85 a2 c5 3d d8 40 80 be cf 34 44 3d 1e 23 9a 3e
       0.09650139 -0.25049472 0.047901925 0.30104917
000120 25 51 94 3d 0a d7 56 3e 2b a4 b0 be 77 70 64 be
       0.072420396 0.20980468 -0.3450025 -0.22308527
000130 29 09 3f be 5f 60 aa 3d 3a d0 94 bd 49 8a a9 bd
       -0.18655838 0.083191626 -0.072662786 -0.08278329
000140 58 60 67 3e 61 4c cb 3c 0e e5 3a 3e a1 50 af be
       0.22595346 0.024816694 0.1825144 -0.34241202
000150 37 c1 87 be cc 9e b0 3e b5 62 4e 3e cc 16 3f be
       -0.265146 0.34496152 0.20154841 -0.1866104
000160 e5 f8 6e bd c3 4f 52 3e 38 e2 a7 3d 6d dd 40 3c
       -0.058342833 0.20538239 0.08197445 0.011771542
000170 3d 2c 32 3e 0d 5c e9 bc f8 6b 37 be 5d 48 70 be
       0.17399688 -0.028486276 -0.1791228 -0.23465104
000180 2d 76 53 3e 44 5d ac 3d 6b ba 63 3d 95 04 ee 3c
       0.20650549 0.084162265 0.055597704 0.02905492
000190 45 25 8d 3d 33 cc 8a 3e 90 4e a7 3e ca 9d 9a 3e
       0.06891874 0.27108917 0.32677126 0.30198509
0001a0 ef 7b f4 3c 5d cc 90 3d c7 8c 1d 3e e0 7f 76 3e
       0.029844252 0.07070229 0.15385734 0.24072218
0001b0 ae 86 5f 3e 94 d5 d2 be fc 0c 96 be f6 97 e8 3d
       0.2182872 -0.41178572 -0.2930678 0.11357109
0001c0 43 d4 3c be d8 46 08 be 0c 9e a8 3c 35 bd 97 3d
       -0.18440346 -0.13308275 0.020583175 0.07409135
0001d0 ae 67 00 3e 14 1f ff bd 7d 6a bb 3d e4 99 bb 3e
       0.1253955 -0.124570996 0.091511704 0.36640847
0001e0 1d 29 18 be 87 7b a0 3d 75 0e 6a be 69 6f 68 3e
       -0.14859433 0.07836061 -0.22857077 0.2269875
0001f0 1d 61 be 3d fe 0d 1f 3e ff 26 5e 3e cb cc e7 bd
       0.09295867 0.15532681 0.21694563 -0.11318358
000200 d1 36 d4 bd ec ae 47 be 23 1a a5 3e 40 77 0c bd
       -0.10362018 -0.19500321 0.32246503 -0.034293413
000210 c8 f0 c1 bb dc e9 6c be ab 15 5c 3d 7e b4 af be
       -0.005918596 -0.23136085 0.0537316 -0.34317392
000220 43 36 1d be 13 57 0a 3e ca fc 69 3d 38 b1 45 3e
       -0.1535273 0.13509779 0.057125844 0.19305885
000230 c5 39 37 3d 80 ea 69 3d 39 b2 4d be 87 69 70 be
       0.044732828 0.057108402 -0.20087518 -0.23477755
000240 47 44 5e be 9c 93 bc bd dd 11 d6 3d 06 c3 36 be
       -0.21705733 -0.09207842 0.10452626 -0.17847833
000250 88 5a bc bd a7 0d 3d be 97 76 1d 3e 62 e9 23 3e
       -0.09196955 -0.18462239 0.1537727 0.16006997
000260 85 86 a9 3e 50 b9 17 3c aa a4 59 3e 8e 36 bc bd
       0.33110443 0.009260491 0.2125422 -0.09190093
000270 59 73 cf be b7 17 31 3e 47 05 62 3e 8c 0d 9a 3e
       -0.4051769 0.17294203 0.22072326 0.3008846
000280 e8 44 04 be 2f 28 22 3e 18 e6 24 bd 23 4b 99 bd
       -0.1291691 0.15835641 -0.040258497 -0.07485034
000290 de 3a b0 3c c8 e5 e6 3d 79 7c 6d bb 70 11 a5 3d
       0.021512445 0.11274296 -0.0036237522 0.080599666
0002a0 03 ce b3 3d e4 f1 53 bd 96 45 33 3e 52 6c 32 bd
       0.08779528 -0.051744357 0.17507014 -0.043560334
0002b0 d8 b3 82 3c dc 0e c3 bc 7e 93 95 be ee 5a e9 bd
       0.015954897 -0.023810796 -0.2921409 -0.113942966
0002c0 3b 23 af bc f4 80 fd 3c fd a1 e0 bd 09 81 ce bd
       -0.021379104 0.030945279 -0.10968397 -0.10083205
0002d0 46 30 f7 bc 8d 51 6f 3e fb 99 aa be 59 37 0c 3d
       -0.030174386 0.23370953 -0.33320603 0.03423247
0002e0 96 ca 3f bd 4c c3 fd 3d 44 a9 38 3e bc 3e 02 bd
       -0.04682406 0.123907655 0.1803332 -0.03179811
0002f0 b9 5c c3 3d fe ae c6 3e e6 ca 8b 3b 9f 07 4b be
       0.0953917 0.38805383 0.0042661307 -0.19827126
000300 e5 5a 59 3d df 37 98 3e d7 5d e7 3e 7e a7 24 3d
       0.0530652 0.29730126 0.45188782 0.040198795
000310 b4 51 5a be 27 56 59 3d 58 3b 3e 3d 8e db 0c 3e
       -0.2132023 0.053060677 0.046443313 0.13755628
000320 ab 8f 40 3e c3 3e d0 3d e2 76 b9 bd a7 fe 10 3e
       0.18804805 0.10168221 -0.09055878 0.14159642
000330 34 d7 d3 3c 47 88 48 3c 16 6f 38 be 39 70 fd bc
       0.025859453 0.012239522 -0.18011126 -0.030937301
000340 f5 bf 00 3d 85 16 22 bd d3 d7 6c 3d 45 23 0f 3c
       0.031433064 -0.039572258 0.057823014 0.008736436
000350 24 cc 90 bd 02 02 01 be 72 3b 88 3d 6b ca d1 bd
       -0.07070187 -0.12598422 0.06651963 -0.10243686
000360 6c fd 8a be ae b9 12 be 53 fa 36 3e a2 8f 7a 3c
       -0.2714647 -0.14328644 0.17868929 0.015293034
000370 e0 b5 79 bd 37 28 56 3e 43 99 16 be e4 14 59 3c
       -0.060964465 0.20913778 -0.14706902 0.01324961
000380 e1 42 76 be d3 07 d8 bd ae 2d 24 bd a4 16 85 be
       -0.2404895 -0.10548367 -0.040082626 -0.25993836
000390 bd 55 d1 3b b8 3f 37 be 65 b3 1f 3e ae 67 0b be
       0.0063883946 -0.178954 0.15595777 -0.1361377
0003a0 06 a0 93 3b 8e 54 4f be de a8 db bd 67 12 ab bd
       0.0045051603 -0.20247099 -0.10725568 -0.08353119
0003b0 ad 04 8d bd 9d c4 56 bc 1d f8 5f 3e e4 4b 2e be
       -0.068856575 -0.0131084 0.21871991 -0.17021137
0003c0 0a f2 6f bd 74 00 9d 3d ed 79 6b be 60 d8 98 3d
       -0.058580436 0.07666102 -0.2299573 0.07463145
0003d0 06 5e af 3b c1 0b e4 be 62 4f e0 3c 26 62 8d 3e
       0.0053517846 -0.44540218 0.027381603 0.27613944
0003e0 18 bd fd 3d a5 a5 2b 3d 7d e4 35 3e ec 6a 57 be
       0.123895824 0.041906018 0.17762943 -0.21036881
0003f0 be 47 ef bd 6c 38 b1 3d 02 0e 85 be 8f 2f 90 bb
       -0.116836056 0.0865334 -0.2598725 -0.0044002007

network_body._body_endoder.seq_layers.0.bias f4 [128]
000000 ee 73 38 bc 27 3c 12 3c d5 97 56 3d 0b a9 1e bc
       -0.011258109 0.008925474 0.052390892 -0.009683858
000010 4e 99 37 3c 86 46 bc bc 5d b6 3f bd e9 dd 9c bc
       0.011205984 -0.022982847 -0.046804775 -0.019148784
000020 9a 0f 1e bc d5 5c 80 bc a9 c7 07 3d 31 82 b0 3c
       -0.009647274 -0.015669266 0.033149395 0.021546455
000030 f1 07 12 3d 05 3a 21 3d cd ae 81 3c f0 af 05 3c
       0.035652105 0.039361972 0.015830422 0.008159623
000040 43 46 2a 3d 59 d1 b9 3c aa a6 e5 bc e4 e5 46 3d
       0.041570913 0.022682833 -0.028033573 0.048559085
000050 99 a2 31 3d 9b 80 17 bd aa 8a 10 bd d6 a6 87 3c
       0.043367956 -0.036987882 -0.03528849 0.016559046
000060 9c d3 0b bd 54 25 2e bc 8f 15 28 3d 58 a6 26 3d
       -0.034137353 -0.010629017 0.041036185 0.04068598
000070 07 19 4a 3d 2e f8 09 bc cc d9 b7 bc 46 44 e8 3c
       0.049340274 -0.008420987 -0.02244272 0.028352868
000080 28 4b 94 3b 9b 31 4b 3d 16 28 0a 3b e8 f3 ee bc
       0.004525561 0.049607854 0.0021081022 -0.029169038
000090 ee 94 55 3d e5 4b 73 3d b8 53 4e bd 93 bd ed 3c
       0.052143984 0.05939855 -0.05037281 0.02902106
0000a0 b1 8d 8c 3d 37 7e 00 3d 4e 4b 2c 3d 7d f3 13 3d
       0.06862963 0.031370368 0.042064004 0.03612088
0000b0 bb 0d 19 bd 3f d7 1b 3d b8 18 1b 3d 6b e1 4a bc
       -0.03736661 0.03804707 0.03786537 -0.012382845
0000c0 73 df 1e 3d d0 96 e4 3c 43 32 f0 3c 68 20 d8 bc
       0.038787317 0.027903944 0.029320842 -0.02638264
0000d0 60 ff 17 3c eb 6a f0 bc b0 0b 25 3d 96 b6 26 3d
       0.009277195 -0.029347857 0.04029435 0.04070147
0000e0 9a a6 03 3d e7 6c 8e 3c 24 39 1a bc e2 6e e2 3c
       0.032141306 0.017385913 -0.009413037 0.027640764
0000f0 12 02 23 3c 0f 02 14 bd fc 5e 8a 3d 1e 1e 02 3d
       0.009949224 -0.036134776 0.06756398 0.031767003
000100 26 3a 85 bd 6c 0f eb 3c 13 38 eb 3c 12 3b 09 bc
       -0.065052316 0.028693877 0.028713262 -0.0083759
000110 cf 70 f0 3c 7e 6b 4b 3b 10 36 3b 3d 5b ef 0b 3d
       0.029350666 0.0031039412 0.045705855 0.034163814
000120 83 07 28 3d f5 4e 16 3d d4 b1 3f bd 75 6f ed 3b
       0.04102279 0.036696393 -0.04680045 0.0072459527
000130 bf cd 30 bd b7 8f 1b 3c 24 54 76 3b a8 2b 02 3d
       -0.043164965 0.0094947135 0.0037586773 0.031779915
000140 72 de 91 3c 8a fe a0 3c 56 34 29 3d 4a 85 14 3d
       0.017806266 0.019652624 0.041309677 0.036259927
000150 93 96 55 bd da 9d 1b bd e5 84 07 3d 92 f9 13 bd
       -0.052145552 -0.037992336 0.033085722 -0.03612668
000160 49 41 1c 3d 77 fa f8 3c 3a 41 44 3c 53 f3 3a 3d
       0.0381482 0.030392868 0.011978442 0.04564221
000170 15 13 67 bd c3 26 2a 3d e8 b2 38 3b b0 ed 0a bd
       -0.056414682 0.041540872 0.0028182808 -0.033918083
000180 3f 7d de bc 12 9b f0 3c 4c 0b 33 3d e9 98 0e 3c
       -0.027159331 0.029370818 0.043711945 0.008703449
000190 20 cc 0a 3d be 4c 10 3d b7 bf f1 3c 30 39 95 3c
       0.033886075 0.035229437 0.029510362 0.018215746
0001a0 65 b2 0d 3d 79 d5 56 3d 05 43 15 3d c5 53 35 3d
       0.03459396 0.052449677 0.036440868 0.044269342
0001b0 2a 8e df 3c d6 4b 7d 3c e7 e0 a7 3c 43 2e 07 bd
       0.027289469 0.015459975 0.020492984 -0.033003103
0001c0 0e b5 bd bc a2 ab e3 3c 84 c3 c9 bb 22 34 a4 3a
       -0.023157623 0.027791802 -0.0061573405 0.0012527744
0001d0 21 48 a4 3a 59 10 e9 3c 86 8b 28 3c ab 1b 15 3d
       0.0012533703 0.028450178 0.010287171 0.03640334
0001e0 ba 4b ea 3c b6 7a e8 3c c1 00 c1 3c f3 e3 08 bd
       0.028600562 0.028378826 0.02355993 -0.033420514
0001f0 78 cf be bb cc df 3c 3d f8 b8 60 bc 88 2a da 3b
       -0.005823072 0.046111867 -0.013715975 0.006657902

network_body._body_endoder.seq_layers.2.weight f4 [128, 128]
000000 d9 92 33 3d a7 0a 3c bd 9e 30 a8 3d 5f ad d4 3d
       0.043841217 -0.045908596 0.08212398 0.103846304
000010 b6 d2 4e 3d c9 52 55 be a8 66 2f bd e8 5b bf 3d
       0.05049392 -0.20832361 -0.04282251 0.093437016
000020 94 4a 83 be 88 24 14 3e 3e 16 e8 bd 27 6e 03 3d
       -0.25642836 0.1446706 -0.11332367 0.03208747
000030 29 53 0a 3d 6e 96 61 bd 09 85 73 bd 34 ed 41 be
       0.033770714 -0.0550751 -0.059453044 -0.18938142
000040 77 9d f3 3c 66 b6 29 be 84 56 59 3d 9a 60 d3 bc
       0.029738171 -0.16573486 0.053061023 -0.0258029
000050 e1 96 a6 3c 86 4c 02 bd 8f ce 5a bc 9b 16 c6 3d
       0.020335617 -0.03181126 -0.0133549115 0.096722804
000060 3e 96 d0 bd 5a 9e 0f bd 51 3e 0f bd b7 25 19 3d
       -0.101849064 -0.035063125 -0.03497154 0.037389483
000070 90 13 19 bd 6c 14 0f 3e 39 b3 33 be d3 74 a4 3d
       -0.037372172 0.13972634 -0.17548837 0.08030095
000080 4c 08 a0 3d c5 2e 20 be a8 28 49 3d 61 10 c6 3d
       0.078140825 -0.15642841 0.04911104 0.09671093
000090 91 46 17 3e 41 9f b9 bd c9 bf 59 bc 15 ba ef bd
       0.14773013 -0.090635784 -0.013290354 -0.11705414
0000a0 29 dd 78 bc 70 fa e4 bd 3f d1 8c bd 9b 96 c2 3d
       -0.015189447 -0.1118058 -0.06875848 0.09501382
0000b0 40 8d b1 bd e2 bc 2a 3d 6c f0 04 bc 89 ee e9 3b
       -0.086695194 0.04168404 -0.008113962 0.0071390313
0000c0 25 d6 90 3d e2 6c e2 3d d6 32 56 be 3a f4 22 3d
       0.07072095 0.11055924 -0.2091783 0.039783694
0000d0 fc 0a bf 3d 67 92 4c 3d 9f 4d d5 bb 09 1a f5 3c
       0.09328267 0.049944308 -0.0065094973 0.029919641
0000e0 0f 8e 1c 3e b8 21 28 3d 55 fb 51 bd 6a f8 0a bc
       0.15288566 0.04104778 -0.05126508 -0.008482078
0000f0 ab 4e 0b 3e 99 f5 31 3e 50 93 85 3d d7 58 3c 3e
       0.13604228 0.17378844 0.06522238 0.18393265
000100 77 29 a5 3d 43 77 3a bd 62 17 06 3d 80 3a e8 bc
       0.080645494 -0.045523893 0.032737143 -0.028348207
000110 59 c3 58 bd 74 fb 25 bd da ca 21 3d 6f 85 95 bd
       -0.052920673 -0.040523008 0.039500095 -0.07300841
000120 19 e7 d4 bd bd 82 3d 3e 56 f3 40 bd e5 5d 40 bd
       -0.10395641 0.18506904 -0.047107063 -0.046964545
000130 92 3e 5f 3b ce 61 02 3c 70 16 7f bd 97 49 8e bd
       0.0034064394 0.007957889 -0.062277257 -0.0694763
000140 f3 cb 4a bb cf 6d 31 3e b0 54 c4 3d d2 f0 c0 3d
       -0.0030944317 0.17327045 0.09586465 0.09420933
000150 80 13 b6 3d b2 94 60 3c f9 8f 1e 3e 9d 2c 62 bc
       0.08890438 0.013707327 0.15484609 -0.013804582
000160 d5 07 f4 bd 88 cf 23 3d 41 af a4 bc 7f 51 89 3d
       -0.11915556 0.03999284 -0.020103099 0.06704997
000170 66 2e 1e 3e 8f 2b f6 bc c6 81 df bd 6f d2 46 bd
       0.15447387 -0.030050067 -0.10913424 -0.04854053
000180 81 54 07 bd cf de c5 bd f1 2c db 3d ef b5 0d bc
       -0.033039574 -0.09661638 0.10701931 -0.008649333
000190 d7 60 00 3e 56 a0 e0 3d 48 76 a6 3d 53 54 43 bd
       0.12536941 0.10968082 0.08128029 -0.04768784
0001a0 ba c1 e9 3c 28 06 cd bd e4 d7 36 be 14 df 6d bd
       0.028534759 -0.1001094 -0.17855793 -0.058074072
0001b0 55 ac 48 3d ce 99 eb 3d 73 03 c4 3b dc 0a 23 3e
       0.048992474 0.11503945 0.0059818565 0.15922111
0001c0 e7 4c 65 3c 2e 1e 99 bd b1 d0 c9 3c 18 8e ca bd
       0.013995386 -0.074764594 0.024635645 -0.098903835
0001d0 d9 d1 08 3c ac 2a 9f 3d a9 4d d7 3d 14 7c 2b be
       0.008350813 0.07771811 0.105128594 -0.16746551
0001e0 3e ce 2c be b2 fc 21 3d 2f 18 9d 3d 2d ec a1 3c
       -0.1687555 0.03954763 0.07670628 0.019765938
0001f0 7f 0d e9 bc 91 fb 27 bc f0 ed 23 be 28 8c d8 3c
       -0.028448818 -0.010252849 -0.16008735 0.02643402
000200 95 13 d2 bd 82 37 15 be dd 16 86 bc f4 1c 08 bb
       -0.10257641 -0.14571956 -0.016368324 -0.002076921
000210 c6 b0 da bc f3 b1 28 be b3 0c 47 3d 78 63 59 3d
       -0.02669562 -0.16474132 0.048596095 0.053073376
000220 41 34 21 bd b4 67 b9 3d ed b7 55 bd 50 dd a3 bb
       -0.039356474 0.09052983 -0.05217736 -0.0050007477
000230 49 9d f7 3d 67 9b 24 3d 52 6f 98 3c 3b b7 9f bd
       0.12090547 0.040187266 0.01860777 -0.0779862
000240 ff 13 00 be 49 3d 20 3e 5b 3f 91 3d 1c d7 98 bd
       -0.12507628 0.15648378 0.07092162 -0.07462904
000250 e7 4a a9 3d 8a f0 db 3c f1 ea 01 bd 7d 75 9d bd
       0.082662396 0.026848096 -0.0317182 -0.07688425
000260 77 27 45 bd 2b 5a bf 3c 3c 32 48 3d 66 cb ad 3d
       -0.04813334 0.023358425 0.048876032 0.08486061
000270 26 b5 8c bd 44 a3 8c bc 0c 20 69 3c 3b a5 2c 3d
       -0.06870489 -0.017167695 0.014228832 0.042149764
000280 c6 42 d8 bd fe 9f 41 3b 5f 86 72 bc d4 83 5c 3c
       -0.10559611 0.0029544826 -0.014802544 0.013459165
000290 bb a9 80 3c 8e 79 b3 3d 68 52 5d bd f6 c2 7a bd
       0.015705934 0.08763419 -0.054033667 -0.061221085
0002a0 a0 c7 27 be 69 5c 23 3e cc 28 ba 3d c1 51 86 bc
       -0.16384745 0.1595322 0.09089813 -0.016396405
0002b0 a3 b7 18 bd 41 0a b8 3d 1a 2d ab bd bf cc 57 bd
       -0.037284505 0.08986331 -0.08358212 -0.052685495
0002c0 2c fe de 3b 33 3a fd 3d d4 c3 41 bd a8 ad e1 bd
       0.006805202 0.12364616 -0.047305897 -0.110194504
0002d0 5f e7 4d 3d f6 25 85 bd e1 7f db 3d 1a 1a 69 3d
       0.05026948 -0.06501381 0.1071775 0.056909658
0002e0 92 6d e2 3c 6d ad a9 3c 34 b7 1b bc 64 54 bc 3d
       0.027640138 0.020712579 -0.009504128 0.09195784
0002f0 08 09 80 3d 7b 53 6a 3c c2 51 ef 3b 62 c5 2c 3d
       0.062517226 0.01430213 0.0073034475 0.042180426
000300 b1 20 db bd 9d 43 3d 3e 36 05 1d 3e 6f c7 ed bc
       -0.10699595 0.18482824 0.15334019 -0.029025761
000310 db 31 8a 3d 74 f3 40 3c 84 2c ee 3c a3 bd 28 3e
       0.067477904 0.011776794 0.029073961 0.1647859
000320 6e e6 3c 3e 89 69 94 bb f4 e8 ce bd 01 1b 99 bd
       0.18447277 -0.0045291823 -0.10103026 -0.07475854
000330 fb c6 82 3c a1 15 08 be bd 49 8a 3d 61 a2 25 3e
       0.015964022 -0.13289501 0.06752346 0.16175224
000340 98 15 19 3c 41 15 e7 bd 24 bc dd 3d ce 8c c8 3b
       0.009343527 -0.11283351 0.108269006 0.006120301
000350 d0 19 1e bd 00 e4 8f bd 0d ba 73 bd 7f 04 ae bd
       -0.038598835 -0.070259094 -0.059503604 -0.08496951
000360 1a 76 08 3e 27 ff b3 3b aa b6 68 bd 33 fb 8d bd
       0.13326302 0.005493063 -0.056814827 -0.06932678
000370 a2 d8 2c bd db 1a 1a 3c a8 0f 68 bd 11 ae 03 bd
       -0.042198785 0.009405817 -0.056655556 -0.032148425
000380 55 fd 98 bc bc bb 51 3e bb b2 0e 3e 0c 66 b2 3d
       -0.018675486 0.20481771 0.13935368 0.0871087
000390 8f 7c 21 3e 57 fd d2 3d b9 bf 42 be 42 88 e8 3d
       0.15770172 0.10302227 -0.19018449 0.11354114
0003a0 b8 a4 77 3d 78 d1 4b 3d cb d4 ed bd 02 f0 9c ba
       0.060459822 0.04976031 -0.11612853 -0.0011973383
0003b0 9c 73 d9 3d ee 84 35 3d f3 69 93 bc b8 56 84 bd
       0.10617754 0.044316225 -0.017994856 -0.06461853
0003c0 68 58 57 bd 84 92 6c bd a2 15 aa 3c 2e 28 a8 bd
       -0.052574545 -0.057756916 0.020762268 -0.08210789
0003d0 16 d5 3d be b7 ea d1 3d 62 11 8d 3d 22 02 22 3e
       -0.18538317 0.102498464 0.06888081 0.15821126
0003e0 03 d5 66 3e 06 f7 8d bd f9 15 37 3e 02 a7 57 bc
       0.22542195 -0.069318816 0.17879476 -0.013162376
0003f0 19 b9 99 bd f6 db e7 3d 83 ba ee 3c 19 e1 84 bd
       -0.07506008 0.11321251 0.02914167 -0.064882465

network_body._body_endoder.seq_layers.2.bias f4 [128]
000000 42 6a cf bb 50 99 f6 3c 0c c0 cf 3c dc 88 0d bc
       -0.0063298056 0.030102402 0.02536013 -0.008638587
000010 c1 0a 77 3c 78 93 b5 3c c1 b0 fd 3c ca cb 1d 3d
       0.0150782475 0.022165045 0.030968072 0.038524427
000020 9f 54 28 3d 8b a6 c5 3b b8 3f d1 3c c4 17 18 b9
       0.041096326 0.0060318164 0.025543079 -0.00014504703
000030 b7 68 43 3d 75 78 de 3c 24 65 ae ba 64 12 d3 3c
       0.047707286 0.027157048 -0.0013305289 0.025765605
000040 7a c8 aa 3c d2 f7 a9 3c 36 83 95 bc 45 7b ed 3c
       0.020847548 0.020748053 -0.018251043 0.028989444
000050 c6 33 f2 3c 20 42 2d 3c ad 0e 78 3a c5 8f 3c 3c
       0.029565703 0.010574847 0.0009462636 0.011508887
000060 91 8c 11 3d c9 24 8f 3b 8c 0a 12 3d f1 14 0f 3d
       0.035534445 0.004368399 0.03565459 0.03493208
000070 0b 36 fd bb 08 71 78 3c d2 b1 aa 3c 76 7a d3 3c
       -0.0077273897 0.0151636675 0.020836744 0.02581523
000080 3e 07 f9 3c 10 47 08 3d 5a a8 24 3b 60 bb d1 3c
       0.030398961 0.033270895 0.002512476 0.025602043
000090 d7 a1 74 3c a6 60 d9 3c 64 52 51 3c 2b c8 04 3d
       0.014931164 0.026535343 0.012775991 0.032417458
0000a0 f3 c4 e5 3b 2c 20 b4 bb 02 dd 3e 3a ce a0 55 3c
       0.0070120036 -0.0054969992 0.00072808575 0.013038827
0000b0 b1 f1 d5 bb f2 5c ba 3c ba 74 08 3d 2c c8 19 3d
       -0.006529056 0.022749398 0.033314444 0.037544414
0000c0 22 cb c7 3c 00 08 6a 3b 73 fe 91 3c bb 41 71 3c
       0.024388853 0.0035710335 0.017821526 0.014725144
0000d0 fa 7c 06 bc ac 5c c1 ba cc 72 f8 3c 7c 01 00 3d
       -0.008208508 -0.001475235 0.030328177 0.031251416
0000e0 65 3f 3c ba b9 f8 fb 3c f0 93 ae ba 1c 1c 23 3b
       -0.00071810774 0.030758249 -0.0013319235 0.002488858
0000f0 6e 39 08 3d e2 71 92 bb 8d a6 06 3d 9b bd 21 3c
       0.033257894 -0.0044691423 0.03287368 0.009871866
000100 e8 54 3e 3c 5e 0e 84 3c 69 3d 0a 3d 9a 80 00 3d
       0.011616923 0.016120132 0.03374997 0.031372644
000110 14 f9 f4 3c f5 24 48 3c 2d 1b e7 ba 18 9d 47 3c
       0.029903926 0.0122158425 -0.0017632 0.01218345
000120 08 8e f0 3c 71 52 d2 bb af 24 83 39 b5 e0 48 3c
       0.0293646 -0.006418519 0.00025013598 0.012260606
000130 82 82 d8 3c f2 88 47 3c 9a 5a c7 3b a1 47 2c 3d
       0.026429418 0.012178646 0.0060837986 0.0420605
000140 06 15 8e 3c 01 b2 03 3d 82 3e 35 3d 12 c5 76 37
       0.01734401 0.03215218 0.044249065 1.4708627e-05
000150 46 12 93 b9 cf 2b 57 3c 2e fe e2 bc 85 e1 ef 3c
       -0.0002805164 0.013133003 -0.027709093 0.02928234
000160 83 49 dd bb d0 9a 3a 3d 92 d5 95 3b 2c 7e 1f 3b
       -0.006753148 0.045557797 0.0045725787 0.002433668
000170 95 1c fd 3c 9e 63 bb bb 2b d8 7c bc a0 e4 07 3d
       0.030897418 -0.0057186624 -0.015432398 0.03317702
000180 c3 9d 99 3c e4 88 15 3d 85 22 a2 bc 84 20 e0 3c
       0.018751984 0.036507502 -0.01979185 0.027359255
000190 15 b5 43 bc 98 1c 4c bc 5c 50 67 bb 07 47 cb 3c
       -0.011945029 -0.012457989 -0.00352957 0.024814142
0001a0 e6 66 f3 3c 28 38 2b 3d af b1 29 3d 67 f9 4e 3b
       0.029712152 0.0418016 0.041429218 0.003158176
0001b0 06 e1 49 ba 79 c0 02 3d 2a 17 15 3d 8d 64 08 3d
       -0.00077010726 0.031921837 0.036399044 0.033299018
0001c0 2b 6f 29 3d 41 cf 2d 3d a6 26 62 3d a9 28 02 3b
       0.041365784 0.04243398 0.05521264 0.001986066
0001d0 e0 05 0a 3d 80 29 c8 3c a8 a1 86 3b ff 1e 06 3d
       0.03369701 0.024433851 0.0041086264 0.032744404
0001e0 80 8b ee 3c 68 7e 11 3d af 95 db bb 40 4a bd 3c
       0.029119253 0.03552094 -0.0067011933 0.023106694
0001f0 1c 15 30 3d 32 72 c0 3c 15 32 17 3d aa 2b 2d 3d
       0.04298888 0.023491953 0.036912996 0.04227797

action_model._discrete_distribution.branches.0.weight f4 [2, 128]
000000 08 92 c9 38 89 ce 37 3d d6 32 ed 3c da f3 96 bb
       9.611627e-05 0.0448747 0.028954905 -0.004606706
000010 e4 8f 81 bd 8f f4 a0 3c 51 b2 24 3d b7 61 8d 3d
       -0.06326273 0.019647865 0.04020912 0.06903403
000020 3f ec 6a 3d be bf 3f bd 9c bc 4b bd 66 b8 50 bd
       0.057354208 -0.04681372 -0.04974042 -0.050957106
000030 7c db 81 3d 73 66 c8 3c 20 51 5f bd 89 ae 2d bd
       0.063406914 0.024462914 -0.054520726 -0.042402778
000040 1f 3a 52 bd a7 75 01 3d 5e cc bc bc b9 57 46 3d
       -0.05132496 0.031606343 -0.023046669 0.048423503
000050 d9 1a 58 3d dc 2c 4b bd af 8c 25 bb ae 2d 84 bd
       0.05275998 -0.049603328 -0.0025260856 -0.06454025
000060 58 e2 7d 3d 48 43 ab 3c 8c 7b 0f 3d 58 e2 2e 3d
       0.061983436 0.020906106 0.035029933 0.042696327
000070 a3 76 b2 3b 0c 67 45 bd 26 04 9c bd 5d fd aa 3c
       0.0054462715 -0.048193976 -0.07617979 0.020872766
000080 00 99 25 3d 58 20 33 3d c3 05 41 bd 7d 98 95 bd
       0.040429115 0.043732017 -0.047124635 -0.073044755
000090 00 57 3b bd e5 05 1a 3d 12 74 28 3c 8e 3d 79 3d
       -0.045737267 0.037603278 0.01028158 0.06084972
0000a0 d9 d3 87 bd e6 66 e3 bc 00 a1 39 bd f0 1f 4a bd
       -0.066322036 -0.027759027 -0.045319557 -0.049346864
0000b0 a4 3c 13 3c b0 12 2e bd 55 b9 da 3c e2 e5 8a bd
       0.008986626 -0.04249829 0.026699701 -0.06782128
0000c0 e3 58 26 3d 5f 28 14 bd 26 10 8a bd d7 68 c9 bc
       0.040612113 -0.036171313 -0.06741361 -0.024586124
0000d0 29 25 e0 bc 69 40 2e bd 79 c0 51 3d 9e 42 0c 3d
       -0.02736147 -0.042541895 0.051208947 0.03424322
0000e0 5f 8b 04 bd c3 39 2e 3d 2b 7d 53 bd 39 55 48 bd
       -0.032359477 0.042535555 -0.05163304 -0.0489094
0000f0 86 45 2c 3d 55 41 45 bd 3d f0 39 3d 1a cf c0 bc
       0.04205849 -0.04815801 0.045395125 -0.023536254
000100 8d 35 22 bd 1f c1 19 3d 86 07 0d 3d 2b 66 10 3d
       -0.03960185 0.03753769 0.034431003 0.035253685
000110 10 81 17 3d 8a 47 54 bd de f5 77 bd dd c4 da bc
       0.036988318 -0.051826037 -0.06053721 -0.0267052
000120 8c 4a e6 3c 0a 99 d8 bc 6a 3f 0e bd fb 05 87 bd
       0.028111719 -0.026440162 -0.034728445 -0.065929376
000130 c2 c7 10 3d 29 83 36 bd aa fd d6 3c 61 9c 2d 3d
       0.035346754 -0.044558678 0.026244003 0.042385463
000140 41 b9 00 3c b3 cf 47 3d b7 a2 7f 3d 44 a4 30 bd
       0.007856668 0.04878206 0.062411036 -0.043125406
000150 b3 3b 8c bd c0 9d 0f bc b8 a3 f1 bc 18 4d 3e 3d
       -0.06847324 -0.008765638 -0.029497012 0.04646024
000160 9f 05 57 bd 9e f9 95 3d 36 72 56 bd a3 14 1b bd
       -0.052495595 0.07323001 -0.052355014 -0.037861478
000170 2a 3d cd 3c 06 99 fb bc 68 ac ca bb 8b 3b 44 3d
       0.02505358 -0.030712616 -0.006185103 0.047908347
000180 13 ba 98 bd 94 d8 3e 3d f8 10 12 bc 9e 2c f5 3c
       -0.07457366 0.046593264 -0.0089151785 0.029928502
000190 36 0e a3 bc 76 b2 fb bb ac 85 0d bd 3f f3 b6 3c
       -0.019904237 -0.0076811863 -0.034551308 0.022332786
0001a0 ae b2 2b 3d 54 c4 3f 3d 93 29 95 3d 3b 92 ba 3c
       0.04191845 0.046818092 0.0728332 0.022774806
0001b0 e4 cd 45 bd bc 5d 40 3d b6 de 2a 3d 74 c2 2f 3d
       -0.048292056 0.046964392 0.0417163 0.042910054
0001c0 7f e5 d3 3c ae bc a9 3d 05 1b 6d 3d b4 04 23 bd
       0.025866268 0.08287941 0.057887096 -0.039799407
0001d0 ef d8 38 3d d6 18 0b 3d b1 8f 43 bd da c1 4e 3d
       0.04512876 0.033959232 -0.047744457 0.05047784
0001e0 82 15 30 3d fb da 52 3d 61 8d e5 bc 7e 0f 74 bd
       0.04298926 0.051478367 -0.028021516 -0.059585087
0001f0 77 6d 63 3d bc 1a 88 bd d3 ec 49 3d 51 b8 2b 3d
       0.055524316 -0.06645724 0.04929812 0.041923825
000200 8d 8b a0 bc 6b 75 1b bd 45 0e f0 bc ee cd 02 3c
       -0.019597793 -0.037953775 -0.02930368 0.007983668
000210 ea 87 33 3d ed 16 3c bc d2 35 39 bd a0 be 26 bd
       0.04383079 -0.011480075 -0.045217343 -0.040709138
000220 23 e4 85 bd f2 7d 25 3d 0c 89 67 3d 38 42 5c 3d
       -0.06537654 0.040403314 0.056527182 0.05377409
000230 c6 c6 91 bd b4 f0 32 bd b2 76 2f 3d 08 5b 03 3d
       -0.07117991 -0.043686584 0.042837806 0.032069236
000240 1e f3 6a 3d 23 17 be bc d7 60 b2 3c 62 b2 83 bd
       0.05736076 -0.023204392 0.021774692 -0.06430508
000250 d5 71 45 bd 50 69 6c 3d 43 d1 d0 3b e7 c3 75 3d
       -0.04820426 0.05771762 0.006372602 0.06000128
000260 2b 12 1e bd 10 51 e7 bc 3b e4 16 bd e6 4c 09 bd
       -0.038591545 -0.028236896 -0.03683875 -0.0335206
000270 8d ca 15 bc df e3 59 3d 78 13 92 3d 91 d4 ee bc
       -0.00914253 0.05319583 0.071326196 -0.029154094
000280 73 1d 13 bd 66 99 1e bd b0 69 56 3d 83 d6 7c 3d
       -0.035916757 -0.03872051 0.052346885 0.06172801
000290 3a b7 86 3d 79 21 38 bd 4e 58 9b bb b9 51 46 bd
       0.065779164 -0.044953797 -0.0047407513 -0.04841778
0002a0 da 8d 56 3d 29 84 39 3d 26 e2 33 3d fb 4c 06 3d
       0.052381374 0.045292053 0.043916844 0.032788258
0002b0 10 62 2b bb 4a cc 4e 3d 7c 56 dc bc b3 80 44 3d
       -0.002615098 0.050487794 -0.026896708 0.0479743
0002c0 ad 3a cd bc 30 71 13 3d fa 1e 70 3d db 37 14 3d
       -0.025052393 0.035996616 0.05862329 0.03618608
0002d0 9d 58 58 3d b7 a4 49 3d d4 bf 4d bd 56 1e 52 bd
       0.052818883 0.04922935 -0.05023177 -0.05129846
0002e0 d3 f3 0f 3d 58 a5 1e bd 07 39 23 3d 8e bb 14 3d
       0.03514464 -0.038731903 0.039849307 0.03631168
0002f0 fd c0 74 bd 86 86 3c 3d c3 f5 1a bd 63 ff e6 3c
       -0.05975436 0.04602673 -0.037832033 0.02819795
000300 42 b4 25 3d 0d 0a b1 bc 41 0c 3c bd bd 57 36 bd
       0.04045511 -0.021611238 -0.045910124 -0.044517267
000310 cc 85 28 bd 33 e7 7a 3d 68 7c 34 3d f1 66 16 3d
       -0.041143224 0.061255645 0.044063956 0.036719266
000320 02 c7 0e bd 14 40 e5 3c 01 18 1c 3d 11 65 89 3d
       -0.034857757 0.027984656 0.03810883 0.0670873
000330 d8 eb c8 bc b3 7b 35 3d 3b 3d a5 bc 43 38 76 bd
       -0.024526522 0.044307422 -0.020170799 -0.06011225
000340 cc 65 3d bc 3b 79 17 bd 4d 9f 61 bd 3c f5 f8 3c
       -0.011559915 -0.03698085 -0.05508356 0.030390374
000350 3f 2d 80 3d 9e e4 06 bc 43 90 b1 3c be 9c b5 bc
       0.0625863 -0.0082332175 0.021675235 -0.022169467
000360 73 33 1a 3d 17 75 59 bd 57 3c 46 3d f9 e2 55 3d
       0.037646722 -0.05309018 0.04839739 0.05221841
000370 4e 6b 44 bd e0 dd d6 3c f9 ac b6 3c fc 08 83 bd
       -0.047953896 0.026228845 0.022299277 -0.06398198
000380 b8 6d 65 3d ef ea 86 bd b6 03 ba 3b c4 54 dc bc
       0.05601284 -0.06587779 0.005676712 -0.026895888
000390 50 9a c6 3c 57 a6 2b 3c 1a c8 34 3d 44 d8 cb bc
       0.024243504 0.01047667 0.044136144 -0.024883397
0003a0 a2 da f1 bc 1d ee ae bd f3 d2 a0 bd 9c b3 3a bc
       -0.029523198 -0.0854151 -0.07852735 -0.011395361
0003b0 64 03 9d 3c 9b 38 da bc 07 0a 42 bd 13 fd 49 bd
       0.019166656 -0.02663832 -0.047372844 -0.049313616
0003c0 0c 45 27 bd 7e d3 77 bd 51 ca 1c bd d4 2d 35 3d
       -0.040837333 -0.06050443 -0.03827888 0.04423316
0003d0 3e 44 2b bd 20 cf 65 bc 7a 0d 4c 3d 9a ac 33 bd
       -0.041813128 -0.014026433 0.04981754 -0.043865778
0003e0 94 f2 2f bd 37 44 8e bd 9d 76 21 3d 41 ed 3a 3d
       -0.04295595 -0.06946605 0.03941976 0.04563642
0003f0 1a 76 07 bd c5 bf 6c 3d 28 11 62 bd 13 c4 10 bd
       -0.033071615 0.057800073 -0.055192143 -0.03534324

action_model._discrete_distribution.branches.0.bias f4 [2]
000000 d2 e7 a9 3c d3 e7 a9 bc
       0.020740423 -0.020740425
